…
      return F.conv2d(
    ================================================================================================================================================================
    Layer (type (var_name):depth-idx)                            Input Shape               Output Shape              Param #                   Kernel Shape
    ================================================================================================================================================================
    EEGNeX (EEGNeX)                                              [1, 129, 200]             [1, 1]                    --                        --
    ├─Sequential (block_1): 1-1                                  [1, 129, 200]             [1, 8, 129, 200]          --                        --
    │    └─Rearrange (0): 2-1                                    [1, 129, 200]             [1, 1, 129, 200]          --                        --
    │    └─Conv2d (1): 2-2                                       [1, 1, 129, 200]          [1, 8, 129, 200]          512                       [1, 64]
    │    └─BatchNorm2d (2): 2-3                                  [1, 8, 129, 200]          [1, 8, 129, 200]          16                        --
    ├─Sequential (block_2): 1-2                                  [1, 8, 129, 200]          [1, 32, 129, 200]         --                        --
    │    └─Conv2d (0): 2-4                                       [1, 8, 129, 200]          [1, 32, 129, 200]         16,384                    [1, 64]
    │    └─BatchNorm2d (1): 2-5                                  [1, 32, 129, 200]         [1, 32, 129, 200]         64                        --
    ├─Sequential (block_3): 1-3                                  [1, 32, 129, 200]         [1, 64, 1, 50]            --                        --
    │    └─ParametrizedConv2dWithConstraint (0): 2-6             [1, 32, 129, 200]         [1, 64, 1, 200]           --                        [129, 1]
    │    │    └─ModuleDict (parametrizations): 3-1               --                        --                        8,256                     --
    │    └─BatchNorm2d (1): 2-7                                  [1, 64, 1, 200]           [1, 64, 1, 200]           128                       --
    │    └─ELU (2): 2-8                                          [1, 64, 1, 200]           [1, 64, 1, 200]           --                        --
    │    └─AvgPool2d (3): 2-9                                    [1, 64, 1, 200]           [1, 64, 1, 50]            --                        [1, 4]
    │    └─Dropout (4): 2-10                                     [1, 64, 1, 50]            [1, 64, 1, 50]            --                        --
    ├─Sequential (block_4): 1-4                                  [1, 64, 1, 50]            [1, 32, 1, 50]            --                        --
    │    └─Conv2d (0): 2-11                                      [1, 64, 1, 50]            [1, 32, 1, 50]            32,768                    [1, 16]
    │    └─BatchNorm2d (1): 2-12                                 [1, 32, 1, 50]            [1, 32, 1, 50]            64                        --
    ├─Sequential (block_5): 1-5                                  [1, 32, 1, 50]            [1, 48]                   --                        --
    │    └─Conv2d (0): 2-13                                      [1, 32, 1, 50]            [1, 8, 1, 50]             4,096                     [1, 16]
    │    └─BatchNorm2d (1): 2-14                                 [1, 8, 1, 50]             [1, 8, 1, 50]             16                        --
    │    └─ELU (2): 2-15                                         [1, 8, 1, 50]             [1, 8, 1, 50]             --                        --
    │    └─AvgPool2d (3): 2-16                                   [1, 8, 1, 50]             [1, 8, 1, 6]              --                        [1, 8]
    │    └─Dropout (4): 2-17                                     [1, 8, 1, 6]              [1, 8, 1, 6]              --                        --
    │    └─Flatten (5): 2-18                                     [1, 8, 1, 6]              [1, 48]                   --                        --
    ├─ParametrizedLinearWithConstraint (final_layer): 1-6        [1, 48]                   [1, 1]                    1                         --
    │    └─ModuleDict (parametrizations): 2-19                   --                        --                        --                        --
    │    │    └─ParametrizationList (weight): 3-2                --                        [1, 48]                   48                        --
    ================================================================================================================================================================
    Total params: 62,353
    Trainable params: 62,353
    Non-trainable params: 0
    Total mult-adds (Units.MEGABYTES): 437.76
    ================================================================================================================================================================
…
