…
        nn.Flatten(),
        nn.Linear(features_ds.datasets[0].n_features, 100),
        nn.Linear(100, 100),
        nn.Linear(100, 100),
        nn.Linear(100, 2),
    )

    summary(model, input_size=first_item.shape)





.. rst-class:: sphx-glr-script-out

 .. code-block:: none

    ==========================================================================================
    Layer (type:depth-idx)                   Output Shape              Param #
    ==========================================================================================
    Sequential                               [10, 2]                   --
    ├─Flatten: 1-1                           [10, 480]                 --
    ├─Linear: 1-2                            [10, 100]                 48,100
    ├─Linear: 1-3                            [10, 100]                 10,100
    ├─Linear: 1-4                            [10, 100]                 10,100
    ├─Linear: 1-5                            [10, 2]                   202
    ==========================================================================================
    Total params: 68,502
    Trainable params: 68,502
    Non-trainable params: 0
    Total mult-adds (Units.MEGABYTES): 0.69
    ==========================================================================================
    Input size (MB): 0.02
    Forward/backward pass size (MB): 0.02
    Params size (MB): 0.27
    Estimated Total Size (MB): 0.32
    ==========================================================================================

    ==========================================================================================
    Layer (type:depth-idx)                   Output Shape              Param #
    ==========================================================================================
    Sequential                               [10, 2]                   --
    ├─Flatten: 1-1                           [10, 480]                 --
    ├─Linear: 1-2                            [10, 100]                 48,100
    ├─Linear: 1-3                            [10, 100]                 10,100
    ├─Linear: 1-4                            [10, 100]                 10,100
    ├─Linear: 1-5                            [10, 2]                   202
    ==========================================================================================
    Total params: 68,502
    Trainable params: 68,502
    Non-trainable params: 0
    Total mult-adds (Units.MEGABYTES): 0.69
    ==========================================================================================
    Input size (MB): 0.02
    Forward/backward pass size (MB): 0.02
    Params size (MB): 0.27
…
